keypoint_gesture_recognizer.pth (torch, 79493 bytes, 6 tensors)

fc_layers.0.weight f4 [128, 78]
000000 5d 80 87 bc f9 4a 14 3c 0d 88 ba bd 01 4d 5a 3d
       -0.0165407 0.009051078 -0.09107981 0.053296093
000010 7e 48 51 bd f8 ca ee 3d f6 47 cd 3d f5 e9 a1 3d
       -0.051094525 0.11659807 0.10023491 0.07905952
000020 ca 26 05 3e 0e 0a d6 3b 7f a5 85 3d f2 2d ee 3b
       0.13003078 0.0065319603 0.065257065 0.0072686607
000030 97 5e b9 3d 0e 99 3a 3d b4 08 8f bc 1b 7e eb 3d
       0.09051245 0.04555612 -0.017460205 0.11498662
000040 eb ae 79 bd c3 0f 16 bb da 48 ea 3c 7d a9 be bc
       -0.06095783 -0.0022897578 0.028599191 -0.023274178
000050 32 fe 02 bd f2 7d 5f 3e 5f c5 26 be 27 53 12 3d
       -0.0319807 0.21825388 -0.16286229 0.03572383
000060 62 3d 40 3e 3e 9e 7b bc 1c 97 d9 3d e5 74 e0 3c
       0.18773416 -0.015357552 0.10624525 0.02739949
000070 a4 3f 18 be 81 44 1d be d2 31 3b 3d e1 0f d5 bd
       -0.14868027 -0.15358163 0.04570181 -0.10403419
000080 89 9f 60 3a 8e 16 01 bd 2c c1 e4 bd 7b 61 d5 3b
       0.00085686945 -0.03151565 -0.11169657 0.0065118647
000090 cd 19 e7 bd ea 50 45 be 67 fd a4 bd 9e ff 36 bd
       -0.11284218 -0.19269148 -0.08056145 -0.04467737
0000a0 b4 69 c7 3c 71 8a 53 bd 8e 25 11 be 6f 57 c2 bd
       0.024342395 -0.0516457 -0.14174482 -0.09489333
0000b0 51 73 49 be fe ec ce bd 2d 66 4d be 55 c8 88 be
       -0.19672896 -0.101037964 -0.20058508 -0.2671534
0000c0 e0 03 3c 3c 1f 89 5c be 48 69 e1 bd 3d f2 8f be
       0.011475533 -0.21536683 -0.11006409 -0.281145
0000d0 53 00 bf 3d c3 cf 09 be d0 ac 8b be b0 38 33 bd
       0.09326234 -0.13458161 -0.27280283 -0.043755233
0000e0 24 f1 28 be a0 a8 dc bd 9c 4d 37 3d 2f 4a 9e be
       -0.16498238 -0.1077435 0.04475175 -0.30915973
0000f0 12 3e 08 be 53 66 e3 3d 2b f2 a5 be e0 6e 11 bd
       -0.13304928 0.11103501 -0.32411322 -0.03550613
000100 49 83 fe bd 27 88 71 3c 60 73 37 3d fd c0 06 be
       -0.124273844 0.014741934 0.044787765 -0.13159557
000110 2c f4 94 bc 74 58 78 3d 65 5d d1 3d d3 5e 11 3e
       -0.018182836 0.06063123 0.10222892 0.14196329
000120 2e 7c 85 bd b8 e5 2b 3d 00 53 1a 3e 8e d9 e0 bd
       -0.06517826 0.041967124 0.15070724 -0.10978995
000130 1c 22 63 3d 68 f9 4e 3e b9 43 16 3e 87 e8 0d be
       0.05545245 0.20212328 0.14674272 -0.13858233
000140 56 7f ba 3e bc 98 89 3e 70 92 28 be 13 2a f6 3c
       0.36425275 0.2687434 -0.16462111 0.03004936
000150 67 83 72 3d fc 27 f7 bd cb ec 5a bd 62 15 5e 3c
       0.059207346 -0.12068173 -0.05344848 0.013554903
000160 cd 24 f2 bd ad 55 ee bd f8 12 97 bc fd 9a cf bd
       -0.118234254 -0.11637435 -0.018441662 -0.101369835
000170 70 4a 2b be 93 c8 19 bb b4 fe 54 be 28 45 f6 be
       -0.16727614 -0.0023465499 -0.20800287 -0.48099637
000180 8f ce 16 bd fa 6a 24 bd f0 a5 15 bf 32 c1 f2 bd
       -0.036818083 -0.040141083 -0.58456326 -0.11853255
000190 13 2a a2 bd cd a2 14 bf 32 3f 5f be 02 ba ba 3d
       -0.07918181 -0.58060914 -0.21801451 0.091175094
0001a0 18 e8 77 be 45 14 bd 3d 52 13 41 bd a2 dd 06 bf
       -0.2420963 0.09232382 -0.047137566 -0.52681935
0001b0 00 8c 99 be c8 29 63 3e 23 23 67 bd 19 f4 b5 be
       -0.29989624 0.22183907 -0.056429993 -0.35537794
0001c0 41 56 2e 3d cb 8e 94 3e 96 ed 3c be 66 9e 17 3c
       0.042562727 0.29015192 -0.18450007 0.009254074
0001d0 40 d0 d2 3d 9c 71 8c bc aa 4d 07 3e 90 3f fa 3e
       0.10293627 -0.017144017 0.1321322 0.4887662
0001e0 7a 98 c3 be 64 d2 a4 3d 41 9c 00 3f 7a f2 26 be
       -0.38202268 0.08047941 0.50238425 -0.16303435
0001f0 b9 b1 07 bd 81 ce eb 3e 55 92 ce ba 5a 4f 8e bd
       -0.033128474 0.46055987 -0.0015760163 -0.06948729
000200 5a d5 74 3e 30 3a e0 3b 6e 8e 79 3a cd 43 2f 3f
       0.23909512 0.006842874 0.000951982 0.6846283
000210 28 91 2f be 43 af 3a 3e 58 e4 08 3f 24 e4 12 be
       -0.17145216 0.1823092 0.53473425 -0.14344841
000220 38 6d 19 3e 29 66 be 3e 4a a8 8f bd f8 f9 9b 3c
       0.1498307 0.37187317 -0.070145205 0.019040093
000230 a3 0b 13 3f d1 91 80 3d 6c ce 56 bd ba a4 ab 3c
       0.5743963 0.06277812 -0.052442953 0.020952571
000240 a2 53 03 be 55 5d 28 3d 10 5a 03 3e 27 b5 4d bd
       -0.12824872 0.041104633 0.12827325 -0.05022159
000250 e1 91 c9 3d e7 dd 8e 3c 63 39 b1 39 04 69 6b 3d
       0.09842277 0.017439796 0.00033802827 0.057473198
000260 c0 87 b6 3d 89 aa 18 be 79 6b 0d be 2f e9 51 3e
       0.08912611 -0.14908804 -0.13810529 0.20499109
000270 37 60 da 3d fd 24 43 bd f0 14 fa 3e be 34 75 bd
       0.10662883 -0.047642697 0.488441 -0.059864752
000280 60 88 ff 3c 6b ed 70 3e 63 40 80 3c 23 fa 12 bc
       0.031192958 0.23528068 0.015655702 -0.00897077
000290 cf ae ae 3e eb 1e 86 bd 59 d2 f7 bd b2 ab 49 3d
       0.34117743 -0.06548866 -0.121006675 0.049236007
0002a0 02 1e 3e 3e 77 04 1a be 98 e8 cf bc 6f 1f 17 be
       0.18566135 -0.15040766 -0.025379464 -0.14758085
0002b0 78 14 1e bd ec ee 11 3d 57 ff 98 3d 5f b2 12 bd
       -0.03859374 0.035628244 0.07470577 -0.03581464
0002c0 6d cb 2f be 44 a4 d5 3c c1 f4 0b be 82 4d 4c be
       -0.17167445 0.026079305 -0.13667585 -0.19951442
0002d0 d8 f9 b1 bd 43 f3 48 bd 4a 35 94 be 7f 42 36 3e
       -0.08690232 -0.049060117 -0.28946906 0.17798804
0002e0 7a 3c e3 bd 35 af f9 bd ac 75 0e be 79 c6 5d 3d
       -0.11095519 -0.12191621 -0.13912076 0.054144356
0002f0 36 c4 ca be 0e 5d 70 bd 3c ae 02 be 88 24 69 be
       -0.39602822 -0.058682494 -0.12761778 -0.22767842
000300 96 ec f9 3d f2 21 4a be 56 26 ec bd 0a 1b 1d bd
       0.12203328 -0.19739512 -0.115307495 -0.038355865
000310 b3 80 31 3d 7c 00 e0 3d 08 1d 9e bd 0b 30 5c 3e
       0.043335628 0.109375924 -0.07720381 0.21502702
000320 40 5d fe bd eb 82 db 3b df 33 98 bd 2c d4 2f be
       -0.1242013 0.0066989562 -0.074317686 -0.17170781
000330 88 95 8e 3d b8 5c 74 bd ab 6a 03 3c 4e 94 d3 3d
       0.069621146 -0.059658736 0.008021037 0.10331021
000340 b2 d4 55 bd dd 13 e8 3c 08 89 c8 3c f3 95 cb 3d
       -0.052204795 0.028329784 0.024479404 0.0994071
000350 79 71 03 3e 2b 7f 8f 3b 8d 0b b7 bc 43 44 e8 bd
       0.12836255 0.0043791733 -0.022344375 -0.11341145
000360 79 96 9f 3d 16 47 5e be fe db db bd 0f b9 e3 3d
       0.07792372 -0.21706805 -0.107353196 0.111192815
000370 cf e3 c0 bd 55 e1 3a 3d c2 5b de bd d7 50 ab bc
       -0.09418451 0.04562505 -0.10857345 -0.02091257
000380 da 08 20 be 36 5c fe 3c fa 26 a3 3d 99 d1 f8 bd
       -0.15628377 0.031049829 0.079664186 -0.121493526
000390 1c 9d 29 3e a8 39 38 3e a0 57 a0 3b d3 c4 65 bc
       0.16563839 0.17990744 0.004893258 -0.014023977
0003a0 1a a4 36 3b 59 6f 90 3e b0 2f 6f 3d 65 24 16 be
       0.0027868808 0.28209952 0.058395088 -0.14662321
0003b0 f8 2f fd 3e 58 a3 29 be b6 c9 33 3a db 0e c9 3e
       0.4945066 -0.16566217 0.00068583654 0.39269146
0003c0 75 b9 45 be 96 dd 90 3d 36 a4 0b bd 1d dc 8e be
       -0.19309027 0.07073514 -0.03409215 -0.27902308
0003d0 77 74 83 3e ac 8f 66 be cd 75 2d bd 1a 85 f0 3e
       0.25674793 -0.22515744 -0.04234867 0.46976548
0003e0 ac f2 0c bf 69 e0 c4 be aa 4d f3 3d f5 12 9b be
       -0.5505779 -0.3845246 0.118800476 -0.302879
0003f0 f0 72 bd be de 15 7b 3d 7a 18 ef be ec 9f 7b be
       -0.37001753 0.06130015 -0.46698362 -0.24572724

fc_layers.0.bias f4 [128]
000000 97 4e c1 3d d2 10 f4 bd 10 7f 0b 3d e8 96 79 bb
       0.09438818 -0.11917271 0.034056723 -0.0038084332
000010 0c 8a d4 3c 41 ce 3a bc f5 49 00 3e 30 65 3b bd
       0.025944732 -0.011401714 0.12528212 -0.045750797
000020 ea f3 fd bd be 9f 2c bd e6 26 5d bd ef 27 d6 3d
       -0.124000385 -0.04214453 -0.053992175 0.104568355
000030 ff 4c 40 3d 9e 22 4d bd 9a 6f db 3c a8 96 69 bc
       0.04694843 -0.05008184 0.026786614 -0.014257111
000040 20 74 c1 bd 90 1e 94 b9 c5 c9 82 3d dc 01 cd 3d
       -0.09445977 -0.0002825153 0.06386141 0.1001012
000050 f4 03 01 3d 2e fc d7 bc e3 da 8f bd 18 be 32 bc
       0.03149791 -0.026365366 -0.07024171 -0.01090958
000060 39 80 12 3e f7 e5 70 bd 03 86 0f be 38 85 b1 3d
       0.14306726 -0.05881306 -0.14015965 0.086679876
000070 ca 5f 0f 3d ce 36 d0 bd c7 db 97 bc b1 96 c2 bd
       0.03500346 -0.10166703 -0.018537415 -0.09501398
000080 2f 78 d5 3d a0 8c 5b 3d 1d 0c e4 3d 0a 1d 6d bc
       0.10423314 0.053600907 0.11135123 -0.0144722555
000090 0a 17 9a 3d f0 97 41 bc a6 5f 7a 3d 71 e8 41 3c
       0.075239256 -0.01181601 0.061126374 0.0118352035
0000a0 14 19 0d bd 58 28 91 3d 13 b4 fa bd 02 4a 93 bd
       -0.034447744 0.07087773 -0.12241378 -0.0719185
0000b0 80 17 e6 bd 7f 2e 45 3e e3 d9 b1 3d d7 d3 b1 3d
       -0.11234951 0.19256018 0.08684137 0.08682983
0000c0 85 88 a2 3b 78 4d 9a bc 54 e2 22 bd 2c 85 e5 3c
       0.004960122 -0.018835768 -0.039766625 0.028017603
0000d0 9c 6b a4 bc 63 9f 06 3c df 84 e0 3d 9a 6c 18 bd
       -0.020070843 0.008216712 0.10962843 -0.037212946
0000e0 01 21 70 bd cc 9d b1 3d 7e d9 da bd 35 f5 19 3e
       -0.058625225 0.086726755 -0.106860146 0.15034945
0000f0 ba 5a 72 3c d2 fb 4f 3d 0f 14 d1 39 ad bc 86 bd
       0.014792139 0.050777264 0.0003987853 -0.06578956
000100 ad b1 db 39 a9 1b ae 3d b6 7a 39 3c 71 3c c3 bc
       0.00041903314 0.085013695 0.0113207605 -0.023832532
000110 97 62 14 3d c2 13 bb bd 33 95 94 3c 9e 34 42 3d
       0.036226835 -0.09134628 0.01813755 0.04741346
000120 ad 3d ad 3d 5a fd 5e bd 22 55 83 bb b6 9b 19 3c
       0.08459029 -0.054440834 -0.0040079514 0.009375503
000130 68 a5 23 3d c0 34 c2 bd 94 c6 93 3d 0c c0 70 bd
       0.039952666 -0.094827175 0.0721561 -0.0587769
000140 c9 2c 9e 3d 77 f7 d7 3d 66 70 ca bd 6c 1c c4 bd
       0.07723386 0.10545247 -0.098847196 -0.095757335
000150 9f ee 0d 3e 22 86 96 bc 88 75 65 bc 72 b1 dc 3d
       0.13860558 -0.018374506 -0.014005072 0.107760325
000160 73 31 c8 bd a7 15 df 3d ba 3d 14 3d d7 4e 97 3a
       -0.09775057 0.10892802 0.03619168 0.0011543882
000170 a8 73 2e bd f5 12 cf 3c 66 0e a4 bb f0 4f 11 3d
       -0.042590767 0.025277594 -0.0050065992 0.035476625
000180 e5 1c 62 bc 7b 56 a2 bd 49 21 b6 3d 7f d4 29 3c
       -0.013800834 -0.07926651 0.088930674 0.010365604
000190 6f 7d 90 3c 4b 0f 3f bd b6 a1 3a 3d 54 9a b1 bd
       0.017637936 -0.046645444 0.045564376 -0.08672014
0001a0 9d 20 2a 3e b8 cb 9c bd 97 74 02 bd cc 0f e0 bd
       0.16614003 -0.07656044 -0.03184947 -0.10940513
0001b0 b6 fe b0 3c c9 c4 3e 3c ed 4a a3 3c ca 50 d3 bc
       0.02160583 0.011643597 0.019933188 -0.02579536
0001c0 a8 ba c0 bd bf 4f a2 bd e6 c0 6d 3d 92 3f a0 bd
       -0.09410602 -0.079253666 0.05804529 -0.07824625
0001d0 7f a0 57 bd 2c d6 31 3c 29 9c 1b be 2e 2d d5 3c
       -0.052643295 0.010854285 -0.15196289 0.02602252
0001e0 b3 24 93 3c bc ff a1 3d 2e c2 a6 3c 58 67 55 3c
       0.017961835 0.079101056 0.020356264 0.013025127
0001f0 a4 80 9f bd 30 4a 82 3b 38 89 ae 3a d7 0f c8 3d
       -0.07788208 0.003976129 0.0013316041 0.09768646

fc_layers.2.weight f4 [64, 128]
000000 bd e6 69 3d 25 69 0c 3e 5a ef 9d bd 0c 7b 92 3d
       0.057104815 0.13711984 -0.07711668 0.071523756
000010 e6 d9 11 bd 72 28 bf 3d 0d 19 98 3b 7e 36 6f 3d
       -0.035608195 0.09333886 0.004641658 0.058401577
000020 d0 9a c6 3d cf 66 21 3e ff 01 9f 3d e0 b7 11 3c
       0.09697497 0.15761875 0.077640526 0.008893937
000030 5b ba 86 bb 3e b0 6e 3d c2 ec ac bd 9f 00 30 bd
       -0.004111571 0.058273546 -0.084435955 -0.042969342
000040 a0 29 80 bc c5 e3 82 be 34 d8 a8 bd 73 95 27 be
       -0.015644848 -0.255644 -0.082443625 -0.16365604
000050 a9 51 30 3e b2 54 d0 39 90 a0 aa 3d 80 41 3f ba
       0.17218651 0.00039735954 0.08331406 -0.0007295832
000060 eb 8b ee bc 14 9d aa bd f9 00 22 be e2 da 4a 3c
       -0.029119452 -0.083307415 -0.15820684 0.012381287
000070 d2 5e fe 3d b8 23 a4 bd 48 34 96 be 58 57 ea 3c
       0.12420429 -0.08014625 -0.29336762 0.028606102
000080 fc 8f 8e bc f7 06 b4 3c 4a 1e 34 3d 44 65 8e 3d
       -0.017402641 0.021975977 0.0439742 0.06952909
000090 c2 df ab 3d 2e 31 54 3d d4 91 a6 3c 0a 67 e2 bd
       0.08392288 0.051804714 0.020333208 -0.110548094
0000a0 51 d3 9b 3d b4 3f 23 3c 36 07 c3 bc 95 49 8c bd
       0.07608665 0.0099639185 -0.02380715 -0.06849972
0000b0 0a 21 78 3d e6 fc c2 3d b2 6f 31 bd 74 eb 6c bd
       0.060578384 0.09520893 -0.04331941 -0.057841733
0000c0 3e c5 50 3d da f8 59 3d 15 6d c9 bc c7 c2 8f 3d
       0.050969355 0.05321584 -0.024588147 0.07019573
0000d0 4a 00 4c bd 8a be c7 bc 01 18 d4 3d 80 c0 02 3a
       -0.049804963 -0.024382848 0.10356141 0.0004987791
0000e0 c2 3a 21 3d 84 61 3c 3d a0 5c d3 bb 44 86 0b 3d
       0.039362676 0.045991436 -0.0064502507 0.034063593
0000f0 6f 4d b4 bd fa e7 5a bd 4b f5 bd 3b c5 59 df bb
       -0.08803832 -0.053443886 0.0057970635 -0.0068161213
000100 4c e0 50 be fb ea 7e 3d b1 ba 5a be d0 ae 2a bd
       -0.20398062 0.062235814 -0.2136028 -0.04167062
000110 37 0b 31 3e d7 7b 03 bd d7 49 59 3d 98 9d 2f bd
       0.17289434 -0.032100525 0.053048935 -0.042874902
000120 11 5d dc 3d 99 c9 8f 3d e6 5a ce 3c 4d 4b 42 be
       0.107599385 0.070208736 0.025189828 -0.18974037
000130 f3 07 a6 3d e4 68 6b bd 4c 61 a0 bc c2 ac f5 bc
       0.08106985 -0.05747308 -0.019577645 -0.029989604
000140 a2 82 91 3e 56 03 50 3d 8a 2e 55 3d 80 32 1c bd
       0.28419977 0.05078443 0.052046336 -0.038134098
000150 f8 65 0c bd 9b d2 f3 bd 20 56 a7 bd e5 64 18 bd
       -0.034276932 -0.11905404 -0.08170724 -0.037205596
000160 f1 85 a6 bd 89 13 9f 3d 36 ea 6a 3d 4a 6a 05 3d
       -0.08131016 0.07767398 0.057352267 0.03257207
000170 0a cb 5e 3d 2f 4d fe bc 78 de e5 bd 72 02 c2 3d
       0.054392852 -0.031042663 -0.11224073 0.09473123
000180 16 cd cb 3d b2 fd 7c 3d 3c 72 f2 3c 55 2c 96 3d
       0.099512264 0.06176538 0.029595487 0.073326744
000190 38 30 3a 3d d8 e5 a4 3c aa 6f 55 3d a4 a8 9f 3d
       0.04545614 0.02012913 0.052108444 0.077958375
0001a0 82 ae fc 3d 95 de 96 bc 14 e1 4e 3d 2e 2a b2 bd
       0.12337972 -0.018416682 0.05050762 -0.086994514
0001b0 ce 9f 18 be 52 77 11 3e b4 b3 42 3d c2 36 0a 3e
       -0.1490471 0.14205673 0.04753466 0.13497451
0001c0 2a bb b6 bd 48 95 24 bd a7 b5 9d bd d3 55 8c 3d
       -0.089224175 -0.04018143 -0.07700663 0.06852307
0001d0 12 af 39 3c e5 cd fa bd c2 a1 bf bd 7a 27 31 be
       0.011333244 -0.122463025 -0.09357025 -0.17300215
0001e0 2d 54 10 bd 3c 06 92 3d b5 ee 31 bd fb f9 29 bd
       -0.035236526 0.07130095 -0.04344054 -0.041498166
0001f0 d0 d1 99 3b 93 d0 9b 3d 4e 80 61 bd f2 a3 97 bd
       0.004694201 0.07608142 -0.055054 -0.07404317
000200 3e e3 50 3d aa e5 42 3d 50 d8 90 bd 7c 45 b2 3b
       0.050997965 0.047582306 -0.07072508 0.005440412
000210 e8 da 07 3d 14 1b c3 bd e2 f4 b0 bd 04 6c 82 3c
       0.03316775 -0.09526649 -0.08640458 0.015920646
000220 77 22 37 3c 29 de 2d 3e 7f eb 98 bd fc 71 a6 bc
       0.011177651 0.16979279 -0.07466792 -0.020318024
000230 95 45 11 3d 22 bc a6 3d 7b 7c 4f 3d ca 37 24 3d
       0.03546675 0.08141352 0.050655823 0.040092267
000240 00 8d 77 3a ea c4 86 3d 17 21 0b bd 74 14 ba 3c
       0.0009443313 0.06580527 -0.033967104 0.022714831
000250 9d 0d 9a bc 2c af 3f 3d b7 41 cd bd 7f 3f a3 bd
       -0.01880532 0.046797916 -0.100223 -0.07971095
000260 91 63 bf bd 20 63 79 3c eb 09 0d 3d 0a 70 04 3e
       -0.09345163 0.015221387 0.034433287 0.12933365
000270 77 25 0b 3e ac c8 9b bd b6 1c df 3e 97 4a 06 3e
       0.1358851 -0.076066345 0.43576592 0.13114391
000280 50 d7 b1 bc ee cc 93 3b 66 6f a7 bd 11 9a ae 3d
       -0.021709114 0.0045105135 -0.081755444 0.085254796
000290 43 8f 2a be ba 3c 60 bd 33 35 5d bd 86 64 97 bd
       -0.16656213 -0.054745413 -0.054005813 -0.0739222
0002a0 10 ac c3 bb 8b 11 c6 bd ba 23 41 3d d8 a1 48 bc
       -0.005971439 -0.09671315 0.047153212 -0.012245618
0002b0 a1 47 b1 3d fc 31 82 bd 62 fe 06 3e c4 e9 c0 3c
       0.0865624 -0.0635719 0.13182977 0.023548968
0002c0 1d e1 9f 3d 38 36 9e bc 2c cc 10 be 90 27 31 bc
       0.07806609 -0.019312963 -0.14140385 -0.010812655
0002d0 af 72 24 bd a2 be 25 3c 30 f9 a9 3b 26 3c 71 3d
       -0.040148433 0.010116251 0.005187176 0.058895253
0002e0 8c cb 8a bc d2 e9 05 bc ee 50 4a 3d d5 40 fb bd
       -0.016942762 -0.008173423 0.049393587 -0.12268225
0002f0 38 33 a7 bd 57 41 38 3c 84 d7 39 3a 25 ad 07 3d
       -0.08164066 0.011246047 0.0007089304 0.033124108
000300 ea 3b 86 be bf 8c 30 3b e8 ae b4 be 63 99 d4 bc
       -0.26217586 0.002693936 -0.35289693 -0.025952047
000310 d2 79 6b 3a 58 1a 54 3c e4 8e 17 3e c8 9b 38 bc
       0.0008982691 0.012945734 0.14800602 -0.01126761
000320 96 d0 53 3d 78 7f 39 bc e8 11 9c 3d 94 13 99 3d
       0.051712595 -0.011321895 0.07620603 0.07474437
000330 7b c9 b0 3c 07 d0 3a bd e7 7a ad bc 7a df 1d 3d
       0.021580448 -0.045608547 -0.021176768 0.038543202
000340 43 62 84 3e 8c 84 b6 3c 08 58 2a bc 46 f7 2e 3d
       0.25856218 0.02228 -0.010396965 0.042716287
000350 1d 0e db 3d 44 3c 2b bc 61 9b 93 bd 97 9c 52 bc
       0.10696051 -0.01045138 -0.072073705 -0.012854717
000360 25 0f 57 bd 80 ef c4 3c 6b 30 80 3d 78 ac ba 3c
       -0.052504677 0.024039984 0.06259235 0.022787318
000370 e1 a3 a6 bd 80 29 65 3d 4b 57 28 be d4 b7 d9 bc
       -0.08136726 0.05594778 -0.1643955 -0.026576914
000380 1e 01 ca bd 99 a3 81 bd c0 8f 8d bd 13 51 0a 3d
       -0.09863494 -0.06330032 -0.06912184 0.033768725
000390 8e 99 05 bb 7c 30 02 3d 36 78 70 3d 71 0a f8 bc
       -0.0020385715 0.03178452 0.058708392 -0.030278416
0003a0 21 8c 1a 3e b1 b7 c0 3c 3b 24 54 3b 08 a4 87 3d
       0.15092517 0.02352509 0.0032370228 0.06623083
0003b0 f7 9b 86 bd 38 a5 a2 3d 06 1d 66 bd 95 9e aa 3b
       -0.06572717 0.07941669 -0.056180023 0.0052068927
0003c0 7e 98 37 be 90 12 d6 3c 80 c6 fd ba 30 67 0c 3e
       -0.17929265 0.026131898 -0.0019361526 0.13711238
0003d0 94 40 13 3d fc 5a 39 be 10 80 9c bd 8f 51 8b 3e
       0.03595026 -0.18101114 -0.076416135 0.27210662
0003e0 11 2a fa bc f1 c1 b0 bb 69 a1 a5 3c 8e e3 b4 bd
       -0.030537637 -0.0053942134 0.020218568 -0.08832465
0003f0 1d 31 8d 3d a6 59 a0 bd 46 0e 7b 3d 23 65 6e bd
       0.06894133 -0.07829599 0.06129291 -0.05820192

fc_layers.2.bias f4 [64]
000000 27 99 b5 b9 8c c4 f6 3d f6 e9 c8 bc 62 38 52 bd
       -0.00034637118 0.12049207 -0.024525624 -0.051323302
000010 dc 87 80 bd fb a7 9a bd 79 9d 4e bc 2a 8b 8b bd
       -0.06275913 -0.07551571 -0.012610787 -0.06813653
000020 a2 d2 14 3d a3 34 19 3d d4 3a d8 bd 6b a9 c9 bd
       0.036333688 0.037403714 -0.105580956 -0.09846767
000030 29 12 5c 3d 25 7a fb 3c 3c f5 99 bd 7e 31 4e 3d
       0.053728256 0.030697891 -0.07517478 0.05034017
000040 df 69 4e bd f2 a8 b5 3d 4b b3 84 bd 24 41 16 3e
       -0.050393935 0.088701144 -0.0647951 0.14673287
000050 68 3f f9 3d e1 b2 8a bd e3 e0 94 bd 6a 88 be 3d
       0.12170297 -0.067724 -0.07269456 0.09303363
000060 2f 88 d2 3d da ce c8 bc 2f 0b 50 bc b3 b7 3c 3d
       0.10279881 -0.024512697 -0.012697979 0.046073627
000070 fa cc 58 3d e0 1e d4 3c 1e d0 b6 3d 63 e8 97 bd
       0.052929856 0.025893629 0.08926414 -0.07417371
000080 49 19 e3 bd fc 09 ec bd 22 d1 17 bd 24 e4 40 bc
       -0.11088807 -0.11525342 -0.03706468 -0.011773143
000090 f3 ad 75 3c 6e f8 91 bc ca 8e a3 3d 94 d6 9b 3c
       0.014995086 -0.017818656 0.07986219 0.019023217
0000a0 61 ab cb bc 64 bc ba 3d 9e 04 65 3d 0f a9 55 3d
       -0.024861993 0.09117964 0.055912606 0.05216318
0000b0 6a 15 b5 bc 4b e8 83 bc 1e 0f 9d bd 89 eb 5e 3d
       -0.022104938 -0.016101977 -0.07668899 0.054423843
0000c0 26 6d 9a bd 70 c7 5c bd 3c b5 c0 bc 1e 34 48 bd
       -0.0754035 -0.053901136 -0.02352392 -0.048877828
0000d0 ed ea d1 3d 2b 3a 76 bd 76 d9 b7 3c 12 d2 3a bd
       0.10249887 -0.060114067 0.02244256 -0.045610495
0000e0 44 68 82 bd d8 57 f8 3d 07 cc b1 bd 13 50 f2 3c
       -0.06367543 0.1212613 -0.08681493 0.029579198
0000f0 a9 79 b6 bc cd 8e 76 3d 7b 7d 96 3d bc 67 b0 bc
       -0.022274809 0.06019478 0.07348152 -0.02153384

fc_layers.4.weight f4 [10, 64]
000000 3c 88 d5 3d fd ef 0f 3e 36 85 8c bd de 3f 61 3d
       0.10426375 0.14056392 -0.068613455 0.05499255
000010 42 bc 6b 3c d7 84 a1 bd 8b b9 01 3c 21 b9 a3 bc
       0.014388146 -0.07886665 0.007917772 -0.019985737
000020 dc be 1e 3d a5 cc e7 3d b2 d9 8f 3d 54 db 79 bd
       0.038756236 0.1131833 0.07023944 -0.061000183
000030 1d 64 08 be 2e 39 76 3e 05 27 ea bd 32 76 c1 3b
       -0.1331944 0.2404525 -0.11433224 0.0059039826
000040 9f 6c 67 bd 92 b3 3d be e1 21 4c 3d 3f 4e 48 be
       -0.056500074 -0.18525532 0.049836997 -0.19561099
000050 00 fb 23 3e ac 40 6d be 37 45 1d be d9 e1 b6 be
       0.16013718 -0.23169202 -0.15358435 -0.35719183
000060 2b e9 1b bd 3f cb a0 be 31 c6 83 3d 0a b8 67 be
       -0.038064163 -0.31405064 0.064342864 -0.22628799
000070 36 2c 9a 3d 77 b3 03 be dd ff 0d 3e f2 00 83 3d
       0.07527964 -0.12861429 0.13867135 0.06396665
000080 16 b2 e0 3d 50 34 16 bd 83 18 34 be 39 5d e0 bd
       0.10971467 -0.036670983 -0.17587475 -0.10955281
000090 ee d3 24 bd 1b 47 98 3d c8 65 92 3e 1a c5 fd bd
       -0.040241174 0.07435437 0.28593278 -0.1239111
0000a0 e7 eb 9f bd b8 9c 36 3e 66 ac 14 3d a6 fc 7b 3d
       -0.07808667 0.17833221 0.036297224 0.06152024
0000b0 9f 82 1f 3d d2 0e 42 3e 41 24 e9 3d a0 ff 84 bd
       0.03894293 0.18950966 0.11383868 -0.06494069
0000c0 8e e0 02 be d3 83 89 3d 26 bf 65 bd e7 e7 90 bd
       -0.12780973 0.067145966 -0.056090496 -0.07075482
0000d0 e5 76 97 3c cc f7 37 bd 39 5b 8d bd c0 52 0f bd
       0.01848931 -0.044914052 -0.06902165 -0.034991026
0000e0 4c 00 07 3e 55 3e 13 be a1 57 91 bd f8 1d c2 3d
       0.13183707 -0.14379247 -0.07096792 0.09478372
0000f0 79 51 65 bd ce 86 ab bd 50 71 b3 3c 73 bd 95 bd
       -0.0559859 -0.08375321 0.021904618 -0.07311525
000100 69 ba b2 bd 66 f2 90 be e8 17 6a 3d 7e c8 8a bd
       -0.08726961 -0.28309935 0.057151705 -0.06776522
000110 47 11 50 3d 51 f1 90 be e2 a6 b9 3c f5 da f8 bc
       0.050797727 -0.2830911 0.022662584 -0.030377844
000120 30 5f c4 3d 12 7a 67 bd 0f a7 ec 3d 7a 3b 1c 3d
       0.09588468 -0.0565129 0.115553014 0.03814266
000130 55 f3 ee 3c da bf 81 be e1 e3 84 3e cb 8f f0 bd
       0.029168764 -0.25341684 0.25955108 -0.11746176
000140 25 f7 bd bd 53 8a 04 3d d7 43 98 3c 27 10 a3 bd
       -0.09275655 0.03235848 0.018587036 -0.07962065
000150 c7 8d f8 3c ca 15 c4 bc 72 f9 f4 3e a9 7d 0d 3e
       0.030341042 -0.023936171 0.47846562 0.13817467
000160 b4 e8 27 3d 1f fe c0 be b7 33 fa bc 0d 64 1e 3e
       0.040993407 -0.3769388 -0.030542238 0.15467854
000170 70 89 05 3e 86 58 81 be 75 af 87 be 8a 99 30 3d
       0.1304071 -0.2526285 -0.2650105 0.043115176
000180 c1 9d 5f 3d f9 6f 2b 3d 52 7b 60 3e d4 ff 20 be
       0.054593805 0.041854832 0.21922043 -0.1572259
000190 04 0c cd bc 5c 25 89 3d 4c a9 40 3e eb ff 2b 3d
       -0.025030144 0.06696579 0.18814582 0.04199211
0001a0 7f e9 1d 3e 94 e5 97 3d ac e0 03 3e 35 e2 84 3c
       0.15421103 0.074168354 0.12878674 0.016221145
0001b0 00 ca 95 3c 37 24 24 be 72 c3 eb 3b cb bf a8 bd
       0.018284798 -0.1602944 0.0071949298 -0.082397066
0001c0 17 99 8f 3d 96 af 1c bd 43 6c 9f 3e 08 b1 53 3d
       0.070116214 -0.03825339 0.31137285 0.051682502
0001d0 28 51 07 3e 38 78 74 be a1 91 b1 bd fb f2 7f 3d
       0.13214552 -0.23873985 -0.08670355 0.062487584
0001e0 96 f2 bb bd d0 ff 69 be cc 64 68 bd 9f 50 ff 3d
       -0.09177129 -0.22851491 -0.056736752 0.12466549
0001f0 c4 0b 09 bf 67 b5 25 be a9 e1 1d be e5 af 79 3d
       -0.5353358 -0.16182481 -0.15418114 0.06095876
000200 3b bf ee bb 68 21 46 be 6d 27 22 3e 6c 2b d3 bd
       -0.00728598 -0.19348681 0.15835352 -0.103110164
000210 db 07 62 be 56 cc 39 3d a4 05 72 bd 6e e4 f5 bc
       -0.22073309 0.045360886 -0.05908741 -0.03001615
000220 fc 6a a8 bd e2 b6 3c 3d 43 b7 5d 3c 09 ef 17 be
       -0.08223531 0.04607285 0.0135324625 -0.14837278
000230 18 9d 85 3d 67 12 75 be de 04 11 bf bc 84 60 bd
       0.06524104 -0.23932801 -0.5664805 -0.054814085
000240 37 48 42 be a2 d0 de bb 44 cf 26 bd 3c a2 75 3e
       -0.1897286 -0.0067997733 -0.040725008 0.23987669
000250 c4 ef 1b be 12 b5 8b be ef 25 92 3d 8d 9e d2 bd
       -0.15228182 -0.27286583 0.071361415 -0.102841474
000260 cd c2 b6 3b 63 47 13 3e eb 57 c5 bd 3e 37 2a 3d
       0.0055774213 0.143827 -0.0963591 0.04155659
000270 fb 1d 18 be 4b 4b 26 3e 29 28 96 3d ab ba 59 be
       -0.14855187 0.1623966 0.07331879 -0.21262614
000280 ba 34 c0 bd fd 92 7c bd 85 ae 1e 3e 69 eb 3a 3d
       -0.09385057 -0.061663616 0.15496261 0.04563466
000290 b3 d2 9c bd f1 d9 14 bd d3 a7 46 be bc 0c 98 bc
       -0.07657375 -0.036340658 -0.19399957 -0.01856076
0002a0 f1 63 ba bd 8c 58 33 be f2 57 3d bd f7 7a 24 3e
       -0.091010936 -0.17514247 -0.04622645 0.16062532
0002b0 85 63 88 3d f1 b1 cb be 09 98 49 3c 5f f2 d2 3d
       0.06659607 -0.39784196 0.012304314 0.10300135
0002c0 60 56 f6 bb c5 ec 7d 3c 0b 0a 52 be 2a b0 e3 3d
       -0.007517621 0.015498345 -0.20511644 0.11117585
0002d0 ba e4 1e bb 5e cf b2 bd 25 8d c4 3d 35 76 f7 bc
       -0.0024245218 -0.087309584 0.09597234 -0.030207733
0002e0 cb a0 cf bd 5e 18 2c be 9a 90 c5 bc 4a f9 5f be
       -0.10138091 -0.1680617 -0.024116803 -0.2187244
0002f0 15 08 fc bd ce 0f 06 be 86 7a 79 be 22 5e 8e be
       -0.12306229 -0.13091967 -0.24363145 -0.27806193
000300 5a 3a b8 3d 11 7e 24 3e 29 6f 85 3d 5b 8d 01 bd
       0.08995505 0.16063716 0.06515343 -0.031628948
000310 dc dc 22 3b e5 bf b0 3d 59 97 29 bd 25 85 9f 3d
       0.002485088 0.08630351 -0.041404102 0.07789067
000320 4c 5e 7c bd 27 76 26 bd 50 86 ef 3d 0f 68 c3 bc
       -0.061613366 -0.040640023 0.1169554 -0.02385333
000330 b0 7e 84 bd 9f 96 ad bd ed 37 74 3e 73 a0 f7 3c
       -0.06469476 -0.08475994 0.23849459 0.030227875
000340 3e 32 28 3d ac f9 15 3e a3 1f 09 be 17 9f 24 be
       0.04106354 0.14646024 -0.13390975 -0.16076313
000350 22 e7 42 3d 90 58 87 3d 07 d0 27 3e db 90 7f 3e
       0.047583707 0.06608689 0.1638795 0.24957602
000360 63 f6 6a 3e 09 3c 22 bf fc 21 46 3c 49 81 23 3e
       0.22945552 -0.63372856 0.012093063 0.15967287
000370 32 61 bb be 2a a9 4c 3d 8e 79 5d bd 5d c3 b0 be
       -0.36597592 0.049966015 -0.054071 -0.3452405
000380 ca 4a d0 3d cf bb 1d be b2 93 cc bd 8d d7 d4 3d
       0.10170515 -0.15403675 -0.09989108 0.103926755
000390 b7 73 b1 3d 2f 46 18 3d be af 84 3d aa 3e 3a bd
       0.08664649 0.037176307 0.06478833 -0.045469917
0003a0 4a a5 4c be 87 6e af bc 2c 27 4c be 61 fa 44 3c
       -0.19984928 -0.021415008 -0.19936818 0.012022586
0003b0 fc 0e bc 3d 30 5a d5 3c d9 d8 59 bd cc 2e 84 3b
       0.091825455 0.026043981 -0.053185318 0.004033899
0003c0 0e c2 db 3d e3 d8 62 bd 03 79 ba be e4 47 23 3d
       0.10730372 -0.05538262 -0.3642045 0.039863482
0003d0 1c 60 8f be 87 e8 ee bd df f1 98 bc ee e1 d5 3d
       -0.28003013 -0.11665445 -0.01867002 0.10443483
0003e0 a8 00 8e 3b dc c1 96 be 1f 0c 78 3c 35 83 02 3e
       0.0043335743 -0.29444778 0.015139609 0.12745364
0003f0 9b a5 8b be 78 80 dc bd d6 07 c9 bd 1e 10 27 be
       -0.27274784 -0.10766691 -0.09815948 -0.16314742

fc_layers.4.bias f4 [10]
000000 52 cd ad 3c 6c cd c7 3d 85 17 ea bd 3d cb 1d bd
       0.021216068 0.09755978 -0.11430267 -0.0385239
000010 64 e8 a2 3a 09 ee c5 bd e2 9c 2e be 36 af bf 3d
       0.0012428877 -0.09664542 -0.17052034 0.09359591
000020 20 f5 15 bd 8e 71 00 3e
       -0.036610723 0.12543318
