keypoint_gesture_recognizer.pth (torch, 70789 bytes, 6 tensors)

fc_layers.0.weight f4 [128, 63]
00000000: 0b45 abbd d265 a23b 7db1 303f ec17 c8bd
00000010: d95d 913d 614d 38be 5763 43bc 7773 de3d
00000020: 2e3b 97bd d9fd be3c 51b8 de3d 12a0 1ebe
00000030: 8ff0 7fbd fe8a 643d 9227 1cbd 33a0 eb3d
00000040: 2016 9dbd 6daf f7bc 160a c63d 3cf8 443d
00000050: e60a 86bd 0e1f 59bd c9ee bebd 07bb 8dbd
00000060: 49e0 1bbd 09c2 6cbe 2c8a ebbc d17b e1bd
00000070: fda3 26bd 57ab fe3c 4a58 393e c164 a43d
00000080: ac1d 5e3b fb74 93bd 778f e4bd 6f5b ba3d
00000090: 6a7b 363c 325a 8abe c721 90bd 2f74 5e3d
000000a0: d390 03be 0258 e23d bc20 c73c f0f6 9b3d
000000b0: c068 9cbe 7525 c23d 347a a43e 478b babd
000000c0: f795 993c 8a21 8b3e 1687 203e 02e7 05bc
000000d0: 0f1f 7abb 5164 a23e 7125 95bd cf3a 1b3e
000000e0: 5872 5d3c 72ea e1bd 5723 633e bad5 7dbd
000000f0: 1762 93bd c784 063d 6419 753e 4c09 d4bd
00000100: 4c74 3b3d 3ffc aabd 5710 9abd 7646 03bd
00000110: 4019 9d3d c8e0 163d 0068 feb8 b0d3 3e3d
00000120: 704b 90bc 7a38 a7bd 2c81 ff3d 0cd4 b9bd
00000130: a2dc 893d a802 01be a8bf 793d e0b6 133d
00000140: acf7 8abd 64c0 763d 2c97 483d 744b 53bd
00000150: 9822 1cbd f0d7 aebc c0de 9cbd ea28 8a3d
00000160: ea37 d93d 9a00 c73d d0f5 bd3d 0028 bebc
00000170: d55a 00be a000 d63d 2698 82bd 4c50 f33d
00000180: ba09 c53d 3e2f cfbd 009d 33ba f219 69bd
00000190: 9e65 36bd 122b ed3d 3e20 ecbd e4e2 663d
000001a0: 9e06 2bbd d996 9bbd 3d7e dabd 7e18 07bd
000001b0: 62c3 99bd a494 b73d 0072 6c3c c41e 58bd
000001c0: 1c54 84bc b40e 02bd b4cb 9dbd d4f7 963d
000001d0: 347d 953d 0af4 25bd ec3a 08bd 74b3 4cbd
000001e0: 0cbd 5b3d 4c06 fdbc 8c4a e53d c0cc 03bd
000001f0: 50f3 bc3d 06df 00be 68b0 b63c 2db7 fabd
00000200: fe4f 943d b815 45bd 9258 b23d 54ae fe3d
00000210: 7635 c0bd 5bae d2bd f611 b2bd 582e fb3d
00000220: 2c64 d93d a47b edbd c4e3 3cbd 3228 dabd
00000230: 86bc c5bd aecf dc3d 6899 8e3d 163f 48bd
00000240: a63a 9ebd 2cb9 3d3d a255 d53d 04d1 80bc
00000250: 2679 d93d 11eb e2bd dc36 4f3d 107c 103c
00000260: e88b 1ebc d030 ce3d 4c44 6ebd b8ac 873c
00000270: 5f92 d1bd 9023 fa3c 00b2 83bd a140 ebbd
00000280: dfc9 fabd a8fb c83d d421 a53d 744b 503d
00000290: 68da 2c3d b09d 6ebc 52db e8bd ee51 f53d
000002a0: e0b1 b13b 6400 d9bc ca71 e23d 9009 633c
000002b0: aa89 f83d bc3c b6bd 14d8 2d3d 6415 413d
000002c0: 4249 ddbd 5e88 37bd 70f8 473d 2c03 4c3d
000002d0: f8b2 00bc 7cb7 9bbd 204e ea3d 40fb da3d
000002e0: 6d20 fcbd 6863 003d f47b ebbd 1e72 d1bd
000002f0: 1cf1 92bd f145 923d 4650 ca3a 3253 c73e
00000300: 0235 f83d c4e1 9ebd d714 ecbd 1f60 ee3c
00000310: a179 17bd 2d54 973d b498 1abd 34d9 0bbe
00000320: 5d22 0e3e faea 0b3c 1222 f63d c024 413e
00000330: 19bb e4bd 5d02 fbbd df9f 96be 82b4 7d3d
00000340: 812c 8ebd 82f2 30bd e920 0bbe 5e6d 883c
00000350: ba79 fbbd d103 36bd 8263 223c 1a48 00bd
00000360: cc4c d13d 9481 a83d 24ce 00be 65b8 5d3d
00000370: e0df 043e f733 033e a84c 4fbd 4826 c8bd
00000380: 05a4 313e e6c5 30be f2d5 aebe 747e 28bd
00000390: b108 b23c 7284 a53d baee bcbc afdb e73c
000003a0: ae2d 0c3d cfd8 983e b035 a83d d303 2ebe
000003b0: 998e 0dbe b939 153e c296 a4be 486c bfbe
000003c0: 50d7 82bd 2fe8 d13d 2320 62bd f74e db3c
000003d0: ff69 7f3e 6b09 073e 4229 8c3d bc78 3f3e
000003e0: 1d33 05be 3cbf 33bd e94c 143c 39a8 e5be
000003f0: 9f85 8f3d 0407 adbd df19 353f bcd8 09bd
-0.08362778 0.0049559856 0.69020826 -0.09770188 0.07097978 -0.17998268 -0.01192554 0.10861867
-0.073843345 0.023314403 0.10874999 -0.1549075 -0.062485274 0.055796616 -0.038123675 0.11505165
-0.07670236 -0.030235017 0.096698925 0.048088297 -0.065450475 -0.05300813 -0.093228884 -0.06920438
-0.038055692 -0.23120894 -0.028752409 -0.11009944 -0.040683735 0.03108756 0.18100086 0.0802703
0.0033892198 -0.07200047 -0.11160176 0.09099471 0.011137823 -0.2702194 -0.070376925 0.05431002
-0.12848215 0.110519424 0.024307601 0.07615459 -0.30548668 0.094798006 0.32124484 -0.09108596
0.018748267 0.27174026 0.15676531 -0.008172752 -0.0038165485 0.3171716 -0.07282532 0.15159152
0.013516031 -0.11031045 0.2218145 -0.061971404 -0.071964435 0.03284147 0.23935467 -0.10353336
0.045765206 -0.083488934 -0.07522648 -0.03204962 0.07670832 0.03683546 -0.00012131035 0.0465886
-0.017614096 -0.08165069 0.124758095 -0.09073648 0.067315355 -0.1259867 0.060973793 0.036063075
-0.06785521 0.06024207 0.048972294 -0.05158563 -0.03811893 -0.021343201 -0.07659674 0.06746085
0.10606368 0.097169116 0.09275401 -0.023212433 -0.1253465 0.10449338 -0.06376676 0.1188055
0.09620996 -0.101164326 -0.0006851703 -0.05690951 -0.044530503 0.11580481 -0.11529587 0.056368724
-0.041754358 -0.07597131 -0.10668609 -0.032982342 -0.075079694 0.08963898 0.014431477 -0.052763715
-0.016153388 -0.031752303 -0.07704869 0.07371488 0.07299271 -0.040515937 -0.033259317 -0.049975827
0.053647086 -0.030886792 0.11195859 -0.032177687 0.09226096 -0.12585077 0.022300914 -0.12241969
0.0724182 -0.048116416 0.087083 0.12435594 -0.09385197 -0.10287162 -0.08694832 0.12264699
0.106148094 -0.11595848 -0.04611565 -0.10652198 -0.096550986 0.10781799 0.06962854 -0.04888829
-0.0772603 0.04631917 0.10416724 -0.015724666 0.1061881 -0.110799916 0.050589427 0.008818641
-0.009676911 0.10067904 -0.0581706 0.01656185 -0.10232996 0.030534536 -0.06430435 -0.11486936
-0.12245535 0.098136246 0.08063093 0.050853208 0.042200476 -0.014563963 -0.11369957 0.119785175
0.0054228157 -0.026489444 0.1105686 0.01385726 0.12135632 -0.08898303 0.042442396 0.04713954
-0.108049884 -0.044807784 0.048820913 0.049807712 -0.0078551695 -0.07603356 0.114406824 0.106924534
-0.12310872 0.0313448 -0.114982516 -0.10226844 -0.07174894 0.071422465 0.00154353 0.3893066
0.121194854 -0.07757905 -0.115274124 0.029098568 -0.03698123 0.07389102 -0.037743285 -0.13657075
0.13880296 0.0085399095 0.12018217 0.18861675 -0.111684985 -0.1225631 -0.29418847 0.061939724
-0.06942082 -0.043200023 -0.13586773 0.016653713 -0.12279077 -0.044437233 0.00991142 -0.03131876
0.10219726 0.0822784 -0.12578636 0.05413093 0.12976027 0.12812792 -0.050610214 -0.097729266
0.17347725 -0.17262992 -0.34147602 -0.04113622 0.02173266 0.080819026 -0.023063052 0.028302995
0.03422325 0.29852912 0.08213365 -0.16993646 -0.13823928 0.145728 -0.3214627 -0.373873
-0.06388724 0.10249364 -0.05520643 0.026771052 0.24942778 0.13187186 0.06843807 0.186984
-0.1300778 -0.043883547 0.00905154 -0.44854906 0.07007908 -0.08448604 0.707426 -0.03365396

fc_layers.0.bias f4 [128]
00000000: 1b47 a83b 8422 66bd a002 5abd 5d48 133e
00000010: fb4c d0bc a557 4ebd 6f2d eb3d b3db 1d3d
00000020: 8bc9 bc3d a7d2 1dbc a187 613d 21dd 403c
00000030: 49ac 503e 6620 b83c 5ced ea3d b43e de3d
00000040: e640 2f3e ff4a afbd 2515 bcbd b4d0 ddbd
00000050: 278c 273e 3117 7fbd 2225 7bbd 0fd1 383d
00000060: c93e 7b3d e62d 96bd 942a cabc 5d7f 723d
00000070: 668d b4bc be4c a9b9 9b5e 4bbd 3509 143e
00000080: bc83 a0bc 70d9 3fbd 4860 923c 5ddd 89bd
00000090: c321 ce3d 2859 a03d 8073 97bd d23e 053e
000000a0: 6868 e23d 6580 a33b 0a8f 5cbe 9a04 5a3e
000000b0: 0e39 babd 49fb e1bc 57ca 033e 6fb7 ef3c
000000c0: 18ec c9bc 2a82 983c c4dc 02be 3aff 93bd
000000d0: 95eb 4f3d a0bb afbb 78bb 873d 2ec8 2b3d
000000e0: 447e e63d c87d cdbd d71e 043e 9204 e13d
000000f0: 8463 05bd a261 613e d08c f8bd c91e bbbd
00000100: a734 ffbc f8c1 51bc 0233 bc3c 406b f83c
00000110: cbb4 c93d 870f 4ebc e645 edbd 99d0 bd3d
00000120: a275 1a3e 95a4 b7bd 4ffc ec3d 1411 5bbd
00000130: 7116 ca3b ff22 a23d d2bf 3f3d fa55 cf3d
00000140: 811c f33d 2477 bfbd a464 3abe fca1 04be
00000150: 1307 413d 916c 523d c6e1 44be a714 c63d
00000160: 97a0 8b3b 486d 593e bdf0 4c3d 00b4 54bc
00000170: c222 243e 73a6 9b3c 6f03 cebd 16fe ae3d
00000180: 3d0b 98bd 98be ca3c c872 233d 52c4 203d
00000190: d6d2 863d 62df e93d 5dbf dc3d 1685 aebd
000001a0: c313 f83d 9a54 273e 6a75 01be 2cad deba
000001b0: ed21 763d cde6 6dbd 8613 aa3d 7fc9 9abd
000001c0: 52f2 193d c0f8 d33c d058 8bbd 590c e83c
000001d0: 6701 573d ebe8 2a3e 2bb2 15bd fc7b 43bd
000001e0: f7a4 f0bd 8b3a fc3c 219c f4bd a3c9 92bd
000001f0: bad0 ce3c 2cc5 93bd a80f c83c e30a b73d
0.0051354296 -0.05618526 -0.05322516 0.14383073 -0.025427332 -0.050376553 0.11483275 0.0385396
0.09218129 -0.009632743 0.055060986 0.011771471 0.20378222 0.022476386 0.11471054 0.108518034
0.171146 -0.08559226 -0.091837205 -0.108308226 0.16362058 -0.062277976 -0.06131471 0.04512125
0.061339173 -0.07332973 -0.024678506 0.059203494 -0.02204008 -0.0003229137 -0.04965077 0.14456637
-0.019594066 -0.046838224 0.017868176 -0.06731675 0.10065033 0.07829505 -0.07395077 0.13012245
0.1105507 0.004989671 -0.2153894 0.21290818 -0.090929136 -0.027585642 0.12870155 0.029262273
-0.024648711 0.018616755 -0.12779528 -0.07226415 0.050761778 -0.005362943 0.06627554 0.041938953
0.11254552 -0.100337565 0.1290239 0.109872 -0.03256561 0.220099 -0.12136233 -0.09136731
-0.031153036 -0.012802593 0.022973541 0.030324578 0.09848937 -0.012576944 -0.11585598 0.092683025
0.15083936 -0.089669384 0.115715615 -0.053483084 0.006167226 0.07916831 0.046813793 0.101238206
0.11870671 -0.09348896 -0.18202454 -0.12952417 0.047125887 0.05137307 -0.1922675 0.09671908
0.004261087 0.21233094 0.050034273 -0.0129823685 0.16028884 0.019000268 -0.10059249 0.08544557
-0.074240185 0.024749085 0.039904386 0.039249726 0.065831825 0.1141956 0.10778687 -0.08521478
0.12113144 0.16340867 -0.12642446 -0.0016988865 0.060090948 -0.058081437 0.08304505 -0.075579636
0.03758461 0.02587545 -0.06804049 0.0283262 0.05249157 0.16690414 -0.036546867 -0.047725663
-0.117502145 0.030789634 -0.11943842 -0.071673654 0.025246013 -0.07215342 0.024421528 0.08937623

fc_layers.2.weight f4 [64, 128]
00000000: d0e0 7ebc 6546 5abd 7d6b a93d 1e06 2d3e
00000010: 1685 8b3c 46ab cdbd 59e7 91ba de8d 833d
00000020: a666 35be 7402 013e c7ad 573d afdf ff3c
00000030: 1357 cdbd 8230 4c3e 916f 2a3d 78ea 013f
00000040: ddde 4cbe 7855 b23d 14df 513f 40aa 89bc
00000050: 94f8 8e3c 21c5 b33c 5d9c cdbc 754a 333e
00000060: 6b1e 84bd c71b 93bd 8e01 483d b9a4 3f3e
00000070: 701c 243e c08d e43c 40b1 8b3d 7dec 103e
00000080: 7016 cf3e b85a 80bd 7e12 97bd 798d c1bd
00000090: f7dd 74bd 2f0c 85bd c163 9f3d eff3 e13c
000000a0: c8d6 6cbd fe7a 11bd 0612 10bd d422 01be
000000b0: 8ce2 993c 51d0 1b3e 3f4c 8a3c 5b61 2fbe
000000c0: 24f0 1cbe f26b 17bd 1701 513d 53a0 a43e
000000d0: c26c 753c f860 543c 3e13 b53e c3fe 9b3d
000000e0: 42bc 353f 6b44 c63d d830 f0bb 850f a6bb
000000f0: d021 45bd 8f09 513d ac2e 403e dee8 9fbd
00000100: 7789 bf3d 0f19 a73d 2815 043d bf97 093e
00000110: 2fce 44be 934e eebb 6fb8 4bbc 9419 323e
00000120: aed6 2b3d 7815 15bc d157 44bd ca76 9fbd
00000130: 16f9 4dbd d806 973e 43f8 14bd aa46 d43d
00000140: 5b40 14bd 6925 99bd 3285 6c3c e4b6 ad3f
00000150: 8501 9ebc a9a4 f0bd 4179 ae3e 12e0 40ba
00000160: 0a39 b7bd a240 d8bd 34e2 bdbe 0234 d8bd
00000170: 9a88 3cbd 01f9 343d 5fad 11bd 307f 84bd
00000180: 9f69 16bd ecdd ef3c a087 22bb b085 ec3e
00000190: a5f1 c7bd c834 743d 7ccf 683e a159 f63d
000001a0: c719 4d3d 40f1 e93d 3c56 43bd 5381 11bd
000001b0: 2de3 9f3e 7ebd 1bbd ce5d ccbd b083 8f3b
000001c0: 0147 ab3e 4bc9 a2bd 98b6 93bd e631 71bd
000001d0: b6ec 75bc d2dd 9b3e d1c2 6d3e 2eae a33e
000001e0: 40b9 47bc e236 7a3f 761f 2d3d 6c8d f0bc
000001f0: 05ac 34be 08ca 9f3d 883b 32bc dbc8 b03f
00000200: fc74 a8bc fc87 c73c a73e 62bd a773 82bd
00000210: 68a7 093d e2aa efbc a040 703c 50a6 f3bb
00000220: 7411 e4bc a259 7b3d d226 763d 4d8b 9d3d
00000230: 9eed 4fbd b6ca 183d f802 c03c e4ad b83c
00000240: 9b14 5dbd c21c 1c3d c92a b1bd 8215 a2bd
00000250: da9b 3bbd 00ff 6a3b 5e03 483d 2de6 61bd
00000260: 0bf6 883d eb74 823d 8ebb 01bd 878f 95bd
00000270: 433e 50bd 9a9d 7a3d 2dbd a9bd 103f b4bc
00000280: 00fa 6139 501c 96bb 2d57 06bd ea56 0c3d
00000290: e5e5 79bd 2432 0f3d 8796 853d b00c 71bd
000002a0: 0c83 89bc cda2 a7bd 00ec 88ba 6464 00bd
000002b0: 5040 ddbb 397b a63d f160 a7bd e0de edbb
000002c0: d430 75bd 86ce 103d 8ead 743d 0f33 1bbd
000002d0: 441d 96bd ce69 403d 20d3 793b 6760 a93d
000002e0: b7f9 853d 4d6d b1bd afb1 17bd 5c3b b8bc
000002f0: 38f6 54bd 99ff 17bd 5092 353c a01b 073b
00000300: 00c7 58bb 00ee f2b9 341d ad3c 0429 36bd
00000310: 7561 53bd ac3d 9ebd 16f5 623d d882 af3c
00000320: 702b df3c cc09 c53c 050c ab3d 0d06 af3d
00000330: 104b c23b a8c3 9fbc 32da 4e3d c079 c13c
00000340: 839d 3fbd 810d 9e3d b667 5c3d c062 0c3c
00000350: d087 743c fa93 3c3d 3fe6 5ebd 5a1b 3f3d
00000360: e8ea 67bd 3090 103c ae11 213d 120e 95bd
00000370: 5e1e 463d 6d58 99bd 7295 7c3d 98fc 43bc
00000380: b0dd 4b3c e290 0a3d 4e9b 60bd f574 a73d
00000390: 90e9 87bb 00e6 4b39 9ce5 82bc b883 0b3d
000003a0: d247 73bd d04d afbd 6568 af3d 96a4 a0bd
000003b0: 6197 84bd 51e2 8e3d 58f0 aebc e3fa 03bd
000003c0: f4b9 92bd 304f cb3b d0f8 6abd 69b1 a33d
000003d0: c56a 873d 8fe5 0abd a01b 3bbc 9f45 ac3d
000003e0: c05e bfbc f63b 94bd f6bf 3dbd aa5d 5b3d
000003f0: 101e b43b 8442 853c 65ad 2dbd e4c7 0dbd
-0.015556529 -0.05328979 0.08272455 0.16896865 0.017031234 -0.100424334 -0.0011131569 0.064235434
-0.17714939 0.12598592 0.05265596 0.03123459 -0.10026374 0.1994038 0.041610304 0.50748396
-0.2000689 0.08707708 0.81981015 -0.016804814 0.017452516 0.021944584 -0.025098974 0.17508872
-0.06451114 -0.071830325 0.048829608 0.1871518 0.16026473 0.027899623 0.06820917 0.14152713
0.40446806 -0.06267303 -0.07376574 -0.09450812 -0.059781995 -0.064964645 0.077826984 0.027582137
-0.05782202 -0.035517685 -0.03517344 -0.12610942 0.018784784 0.15216185 0.01688206 -0.17126982
-0.15325981 -0.03696818 0.05102643 0.32153568 0.014979543 0.012962572 0.35366243 0.07616951
0.70990384 0.096810184 -0.0073300414 -0.005067768 -0.04812795 0.051034506 0.18767804 -0.07808088
0.09352391 0.081590764 0.03224674 0.13436793 -0.19219278 -0.0072725504 -0.012434109 0.1739257
0.04195278 -0.009099357 -0.04793531 -0.07786329 -0.050286375 0.2949741 -0.036369573 0.103650406
-0.036194187 -0.074778385 0.014436053 1.3571439 -0.019287834 -0.117501564 0.34076884 -0.0007357608
-0.08946426 -0.10559203 -0.37086642 -0.10556795 -0.04602871 0.04418278 -0.03556573 -0.064695716
-0.036721822 0.029280625 -0.0024800077 0.46195745 -0.09762887 0.05962065 0.22735399 0.12028814
0.05007341 0.11422968 -0.04768966 -0.035523724 0.3122801 -0.03802251 -0.09978829 0.004379712
0.3345261 -0.0794855 -0.07212561 -0.058885477 -0.01501005 0.30442673 0.23218848 0.31968826
-0.012190163 0.97739995 0.04226633 -0.02936431 -0.17643745 0.07802206 -0.010878451 1.3811296
-0.020563595 0.024356835 -0.05523553 -0.06369715 0.033606917 -0.029256288 0.014663845 -0.0074355975
-0.027840354 0.061364777 0.060095616 0.07692585 -0.05076372 0.037302695 0.023438916 0.022543855
-0.05397473 0.038113363 -0.08650739 -0.079142585 -0.04580293 0.0035857558 0.048831336 -0.055151153
0.06687554 0.063699566 -0.031673007 -0.07302766 -0.050840627 0.061185457 -0.082880355 -0.022002727
0.00021550804 -0.004581012 -0.03279798 0.034262575 -0.06101026 0.034959927 0.065228514 -0.05884999
-0.01678612 -0.08185349 -0.001044631 -0.03134574 -0.0067520514 0.081289716 -0.08172787 -0.007259235
-0.05986102 0.035353206 0.059735827 -0.03789049 -0.07329801 0.046975903 0.0038120225 0.082703404
0.0654177 -0.086634256 -0.037034687 -0.022489242 -0.051992625 -0.03710899 0.011082247 0.002061583
-0.0033077598 -0.0004633516 0.02113209 -0.04447271 -0.051606614 -0.07726607 0.055409513 0.021424696
0.027242392 0.024052523 0.08351902 0.08546076 0.0059293583 -0.019502476 0.050501056 0.023617625
-0.046781074 0.077174194 0.053809844 0.008568466 0.014924958 0.04603956 -0.0544188 0.046656944
-0.05662051 0.0088234395 0.0393235 -0.07278074 0.048368804 -0.07487569 0.06166596 -0.0119620785
0.012442991 0.033829577 -0.05483561 0.08176605 -0.004147716 0.0001944527 -0.015978627 0.034061164
-0.059394665 -0.085597634 0.085648336 -0.07843892 -0.06474186 0.0697676 -0.02135484 -0.032221686
-0.07164374 0.0062045082 -0.057366192 0.07992823 0.066121615 -0.03391033 -0.0114201605 0.08411717
-0.02336061 -0.07237999 -0.046325646 0.053556122 0.005496748 0.016267069 -0.04240169 -0.03461446

fc_layers.2.bias f4 [64]
00000000: ba39 ca3c 347a a0bd 5597 023e 3c71 5d3d
00000010: 024e 593d ee8a d93d a51c 9f3d cb58 0d3e
00000020: 4a46 9abd b646 2fbc 4997 833d 381b c03c
00000030: 5250 76bc 7cd4 a83d 2bc3 9fbd f362 073e
00000040: d06d 2cbd 00e5 6d3c c1f6 12bd 9c35 31bc
00000050: 7f64 bc3d e5d6 09bd 7c07 973c 0824 fabc
00000060: dc6d c8bc 040d 153e 7b21 0a3d 81dd 74bd
00000070: 680a 38bc e41e db3d 0b6e aebd e055 b8bd
00000080: 01ca 383d 865a a6bd 9d6c 193d 0fbb 1f3e
00000090: 0ceb e23c 4ad0 bfbc e88f 4d3c 6629 69bd
000000a0: 70bf 863c d34e 983d 302c 56bc 3c8b bfbd
000000b0: 9480 3bbb 3f7d a33d de99 c73b a4c2 b73d
000000c0: e197 873d 2b34 2b3c b61a aabc 6721 b2bd
000000d0: e326 a6bd 1792 a93d e564 1f3e e6e5 553c
000000e0: 6f93 873d 3945 ba3c aa22 d23d 55aa b33c
000000f0: 1442 993c d9f6 4abd eb51 4f3d 2f67 9f3d
0.02468573 -0.078358084 0.12753041 0.054063067 0.05305291 0.10622202 0.077691354 0.13803403
-0.07532938 -0.010698011 0.0642534 0.023450479 -0.015033798 0.08243653 -0.07800897 0.1322134
-0.042096913 0.01451993 -0.035879854 -0.010816004 0.091988556 -0.033652205 0.018436186 -0.03053476
-0.024466448 0.14555746 0.033723336 -0.059781555 -0.01123295 0.10699251 -0.08517083 -0.09000754
0.04511452 -0.08122735 0.037457097 0.15598701 0.02769997 -0.02341475 0.012546517 -0.056924246
0.016448706 0.074369095 -0.013072059 -0.09352729 -0.0028610574 0.07982873 0.0060913404 0.08972672
0.066207655 0.0104494495 -0.02076469 -0.08697777 -0.08112886 0.082798176 0.15565832 0.0130553
0.066199176 0.022738086 0.10260518 0.021931807 0.018708266 -0.04955182 0.050615232 0.077833526

fc_layers.4.weight f4 [6, 64]
00000000: 961b 833d 7079 2dbc c424 933e 3ca8 babe
00000010: 6b24 ffbe 754d 0abf 2da1 013d a3be 9c3e
00000020: c05b e23d 1aa7 a7bd f0ea 8bbe cb18 e03d
00000030: ce13 1a3e 41bc b8be 782c f53d ca0a 723e
00000040: d636 d7bd 2660 b83d 3082 6cbc 3fde 3c3e
00000050: 4a45 e3be 06e4 f03d 379e 93bc f09b 04bf
00000060: 426e ffbd 8ba1 263e fc7e 883e d923 853e
00000070: f9da c93d 0a74 e6bd c86e bfbd 1e9c dc3c
00000080: bd13 983e d1ce 8f3d d9e3 e53b e121 b03e
00000090: dd7f d73e 2a9e 09bf 83de f8be 7524 b8bd
000000a0: 5115 f1bd 48f3 b53e 2c9f 7fbd 9619 613d
000000b0: 55c4 473e dbce d4be 04e9 c1bd 9cbd fbbe
000000c0: 5451 de3d 7666 663e 65ec b13e 506a 323c
000000d0: f3e6 9abd 6eb6 69be 64de 963e b0fb dabe
000000e0: 9442 06bf 81d2 ef3d bb96 9d3e b38b f7be
000000f0: 4e86 a7bd 6c48 5d3d ea1f dbbe 585c 153f
00000100: 7555 23bf b44e e0bd 97c9 243d 279f ffbe
00000110: 5f18 f9be 2781 24bf af3d 16bf ec91 523e
00000120: a019 993d 71c8 8f3d 5bae 9f3e aa29 04be
00000130: f216 d7be db00 84be 516b 1cbf 8b0d 6fbe
00000140: 9033 3fbd 98f2 6bbd c894 e4bd a189 5b3d
00000150: 9bac 053e 8e89 cebd 0039 9bbd 4280 863b
00000160: fa65 f6bd 9ecf e53e 5151 e53e 2e51 4abd
00000170: 4fc7 b2bd 9e0b 0abf 8d9c 323d e088 e83c
00000180: 1e6c b53e b0b1 9a3d 5a6f 3d3d 2e3e b13e
00000190: 2523 d23e 4a88 f7bd 6dd2 cf3c 6864 cfbd
000001a0: 6314 d23d 9388 c43e 88ca 7a3d 0bd8 df3d
000001b0: a986 00bf a914 9a3d c938 123d b9f1 1fbf
000001c0: 451c 7b3d 5ff4 ccbe 73bd ca3e fe35 d6bd
000001d0: 92da e5bc f9bc 7e3e cae4 843e 7877 3fbe
000001e0: 45fc 2fbf 5800 36bc fd09 48be fc36 9b3c
000001f0: a845 b33c 8072 193d 492c 5d3e ecf2 d7be
00000200: 9e5f 03bf 9044 3bbd 21df 7f3d f49c 463e
00000210: d4a6 023e a1a8 d73d b6f4 283e 005a cb3e
00000220: 20d5 7dbc 4aed b43d bfea 9d3e ca9c 85bc
00000230: d8f8 3cbf 25ed e1bd 5ad9 0fbf 3acb a1be
00000240: 004f 743a 5c09 6dbd ec91 623d 7592 fdbd
00000250: edec 7a3e 5282 8abd f723 24bc 10bd 923d
00000260: 46b9 8d3d f584 cd3e fe97 f63d b41f b1be
00000270: aa08 57bd 88f1 5e3e cc11 d73d ad3d 213d
00000280: 9d9f 34bf 18e0 c3bd b68e 51bb ad95 8c3e
00000290: 981f b1be 780c b6bb f620 5e3e 92c0 8b3b
000002a0: 264b af3d 6169 88be 90ab 2dbd 9aa3 19bd
000002b0: 2b0f 2ebf 4498 5d3e 9f2d cbbc fd7e 7fbb
000002c0: a084 bd3d dd4d 16bf 7fc4 3bbf 40ba 9a3c
000002d0: 8fdd ed3b 4ae2 073e 1ee6 6c3e 78bb 09be
000002e0: 20dd 5d3c fe94 3cbd 473e 5ebe 8414 133e
000002f0: d607 cd3d 0c73 453d a7ca 643e 4d46 53bf
00000300: 7cb2 483e 60cf 053c a415 12bf e8ae d1be
00000310: 65fa 873e 8da7 04be 5422 3fbe f5a6 32bf
00000320: 52c2 b1bd bf57 633d 5178 22bd 2558 88bd
00000330: e299 833d 5fa4 913e f1e2 083e 9c76 f5be
00000340: accf 263d 80b4 94bd aaa3 fa3d ce4d cd3e
00000350: ded0 5e3d 404a 613b 8b25 843d b51e a33e
00000360: d47f fb3d 9188 09bf 4398 d0bd 4cc1 d8be
00000370: f103 97bc dff1 aebe 0a63 d1bb e892 343d
00000380: d6de 093e da08 e4bd 965a 5b3d 53fa d3be
00000390: b95e 143e d342 963e 12ef 703e b79f 053e
000003a0: 851e 013d 732f 383e 607f 89bd 3d6c 15bd
000003b0: 0baf bebd c228 533e 7d53 823d 9777 243d
000003c0: 689b b7bd 8124 19be 5f56 8d3e 6201 a93d
000003d0: cf56 02bd 1f0d bc3d 6578 cfbd f87d ccbe
000003e0: 5bc9 143e 6a2a 64bd f4f1 e4be 67fc 2f3e
000003f0: d6bd ed3d 48ec a5bd 8f56 35bd 6c2f 5abe
0.06401746 -0.010588035 0.28738987 -0.36456478 -0.49832472 -0.5402444 0.03164785 0.30614194
0.11052656 -0.08186169 -0.2732768 0.10942229 0.15046617 -0.36081126 0.11971372 0.23636928
-0.10508506 0.09002714 -0.014435336 0.18444155 -0.443888 0.11762242 -0.018019779 -0.5180044
-0.12472202 0.16272561 0.2665938 0.26003912 0.09856219 -0.112526014 -0.09347302 0.026929911
0.2970256 0.07021869 0.007015687 0.34400848 0.4208974 -0.53756964 -0.48607263 -0.089913286
-0.11771644 0.3553717 -0.062407658 0.05495604 0.19508488 -0.41564068 -0.09468272 -0.49168098
0.10855356 0.22500023 0.34750667 0.010889605 -0.07563581 -0.22823498 0.29466546 -0.42770147
-0.5244534 0.11710072 0.3077906 -0.4834877 -0.081799135 0.054024145 -0.42797786 0.5834403
-0.6380227 -0.109525114 0.040231314 -0.4992611 -0.48651406 -0.6425957 -0.5868787 0.20563477
0.07475591 0.07020653 0.3118771 -0.12906519 -0.42009693 -0.25781903 -0.6110125 -0.2334501
-0.046680033 -0.057604402 -0.1116119 0.05359805 0.13054125 -0.1008483 -0.07579231 0.004104645
-0.12031169 0.44884962 0.44788602 -0.049393825 -0.08729421 -0.53923976 0.04360633 0.02838558
0.3543405 0.075534225 0.04624877 0.34617752 0.41042438 -0.12086542 0.025368894 -0.10126573
0.10257795 0.38385448 0.061228305 0.10929879 -0.50205475 0.07523472 0.035698686 -0.62478215
0.061306257 -0.4003019 0.39597663 -0.10459517 -0.028058324 0.24876775 0.25955802 -0.18697917
-0.6874431 -0.01110848 -0.1953506 0.018947117 0.0218838 0.03746271 0.21598925 -0.42177522
-0.51317775 -0.045719683 0.06246865 0.1939581 0.12758952 0.1053021 0.164996 0.39717102
-0.0154927075 0.08834322 0.3084316 -0.016310114 -0.73817205 -0.1103156 -0.5619103 -0.31600362
0.0009319633 -0.057870254 0.055314943 -0.1238145 0.24504443 -0.06763138 -0.01001834 0.07164967
0.06920104 0.401405 0.12040709 -0.345945 -0.052498497 0.21771824 0.10501441 0.03936546
-0.7055605 -0.09564227 -0.0031975931 0.27457944 -0.34594417 -0.0055556856 0.21692261 0.0042648995
0.08559255 -0.26642898 -0.042399943 -0.03750954 -0.67991894 0.21640116 -0.024802027 -0.0038985603
0.09253812 -0.5871256 -0.73346704 0.018887639 0.007259078 0.13269916 0.23134658 -0.1345042
0.01354149 -0.046040528 -0.21703444 0.14363295 0.1001126 0.04820542 0.2234293 -0.82529145
0.19599336 0.008167118 -0.5706427 -0.40953755 0.26558223 -0.1295454 -0.18665439 -0.69786006
-0.08679642 0.055503603 -0.039665524 -0.06657437 0.06425835 0.28445718 0.13367821 -0.47942054
0.040725395 -0.0726099 0.12238248 0.40098423 0.05439841 0.0034376532 0.06452473 0.31859365
0.12280241 -0.5372401 -0.101852916 -0.42334974 -0.018434497 -0.34168908 -0.00638998 0.044085413
0.13463911 -0.11134501 0.053553186 -0.4140192 0.14489259 0.29347858 0.23528698 0.13049208
0.031523246 0.1798685 -0.06713748 -0.036480177 -0.093107305 0.20621017 0.063635804 0.040153112
-0.08965188 -0.14955331 0.27604958 0.08252217 -0.03182107 0.0918219 -0.10130385 -0.39939857
0.14529936 -0.05570451 -0.44715846 0.17186128 0.11608474 -0.08101708 -0.044272 -0.21307153

fc_layers.4.bias f4 [6]
00000000: 8d49 eb3d edaa 7d3d 14aa cd3d dea8 4bbd
00000010: c2e5 c93d c113 b3bd
0.11488638 0.061930586 0.100422055 -0.04972159 0.09858276 -0.08744002
